torch.Size([1, 3, 529, 951])
torch.Size([1, 3, 543, 965])
torch.Size([1, 3, 543, 965])
torch.Size([1, 3, 543, 965])
==========================================================================================
Layer (type:depth-idx)                   Output Shape              Param #
==========================================================================================
Classifier                               [128, 10]                 --
├─Conv2d: 1-1                            [128, 64, 32, 32]         256
├─LayerNorm: 1-2                         [128, 64, 32, 32]         131,072
├─Sequential: 1-3                        [128, 512, 4, 4]          --
│    └─ConvNextBlock: 2-1                [128, 64, 32, 32]         --
│    │    └─Conv2d: 3-1                  [128, 64, 32, 32]         3,200
│    │    └─LayerNorm: 3-2               [128, 64, 32, 32]         131,072
│    │    └─Conv2d: 3-3                  [128, 256, 32, 32]        16,640
│    │    └─Conv2d: 3-4                  [128, 64, 32, 32]         16,448
│    └─ConvNextBlock: 2-2                [128, 64, 32, 32]         --
│    │    └─Conv2d: 3-5                  [128, 64, 32, 32]         3,200
│    │    └─LayerNorm: 3-6               [128, 64, 32, 32]         131,072
│    │    └─Conv2d: 3-7                  [128, 256, 32, 32]        16,640
│    │    └─Conv2d: 3-8                  [128, 64, 32, 32]         16,448
│    └─Downsampler: 2-3                  [128, 128, 16, 16]        --
│    │    └─LayerNorm: 3-9               [128, 64, 32, 32]         131,072
│    │    └─Conv2d: 3-10                 [128, 128, 16, 16]        32,896
│    └─ConvNextBlock: 2-4                [128, 128, 16, 16]        --
│    │    └─Conv2d: 3-11                 [128, 128, 16, 16]        6,400
│    │    └─LayerNorm: 3-12              [128, 128, 16, 16]        65,536
│    │    └─Conv2d: 3-13                 [128, 512, 16, 16]        66,048
│    │    └─Conv2d: 3-14                 [128, 128, 16, 16]        65,664
│    └─ConvNextBlock: 2-5                [128, 128, 16, 16]        --
│    │    └─Conv2d: 3-15                 [128, 128, 16, 16]        6,400
│    │    └─LayerNorm: 3-16              [128, 128, 16, 16]        65,536
│    │    └─Conv2d: 3-17                 [128, 512, 16, 16]        66,048
│    │    └─Conv2d: 3-18                 [128, 128, 16, 16]        65,664
│    └─Downsampler: 2-6                  [128, 256, 8, 8]          --
│    │    └─LayerNorm: 3-19              [128, 128, 16, 16]        65,536
│    │    └─Conv2d: 3-20                 [128, 256, 8, 8]          131,328
│    └─ConvNextBlock: 2-7                [128, 256, 8, 8]          --
│    │    └─Conv2d: 3-21                 [128, 256, 8, 8]          12,800
│    │    └─LayerNorm: 3-22              [128, 256, 8, 8]          32,768
│    │    └─Conv2d: 3-23                 [128, 1024, 8, 8]         263,168
│    │    └─Conv2d: 3-24                 [128, 256, 8, 8]          262,400
│    └─ConvNextBlock: 2-8                [128, 256, 8, 8]          --
│    │    └─Conv2d: 3-25                 [128, 256, 8, 8]          12,800
│    │    └─LayerNorm: 3-26              [128, 256, 8, 8]          32,768
│    │    └─Conv2d: 3-27                 [128, 1024, 8, 8]         263,168
│    │    └─Conv2d: 3-28                 [128, 256, 8, 8]          262,400
│    └─Downsampler: 2-9                  [128, 512, 4, 4]          --
│    │    └─LayerNorm: 3-29              [128, 256, 8, 8]          32,768
│    │    └─Conv2d: 3-30                 [128, 512, 4, 4]          524,800
│    └─ConvNextBlock: 2-10               [128, 512, 4, 4]          --
│    │    └─Conv2d: 3-31                 [128, 512, 4, 4]          25,600
│    │    └─LayerNorm: 3-32              [128, 512, 4, 4]          16,384
│    │    └─Conv2d: 3-33                 [128, 2048, 4, 4]         1,050,624
│    │    └─Conv2d: 3-34                 [128, 512, 4, 4]          1,049,088
│    └─ConvNextBlock: 2-11               [128, 512, 4, 4]          --
│    │    └─Conv2d: 3-35                 [128, 512, 4, 4]          25,600
│    │    └─LayerNorm: 3-36              [128, 512, 4, 4]          16,384
│    │    └─Conv2d: 3-37                 [128, 2048, 4, 4]         1,050,624
│    │    └─Conv2d: 3-38                 [128, 512, 4, 4]          1,049,088
├─Sequential: 1-4                        [128, 10]                 --
│    └─Flatten: 2-12                     [128, 512]                --
│    └─LayerNorm: 2-13                   [128, 512]                1,024
│    └─Linear: 2-14                      [128, 10]                 5,130
==========================================================================================
Total params: 7,223,562
Trainable params: 7,223,562
Non-trainable params: 0
Total mult-adds (G): 39.46
==========================================================================================
Input size (MB): 1.57
Forward/backward pass size (MB): 2072.52
Params size (MB): 28.89
Estimated Total Size (MB): 2102.99
==========================================================================================
==========================================================================================
Layer (type:depth-idx)                   Output Shape              Param #
==========================================================================================
Classifier                               [128, 10]                 --
├─Conv2d: 1-1                            [128, 64, 32, 32]         256
├─LayerNorm: 1-2                         [128, 64, 32, 32]         131,072
├─Sequential: 1-3                        [128, 512, 4, 4]          --
│    └─ConvNextBlock: 2-1                [128, 64, 32, 32]         --
│    │    └─Conv2d: 3-1                  [128, 64, 32, 32]         3,200
│    │    └─LayerNorm: 3-2               [128, 64, 32, 32]         131,072
│    │    └─Conv2d: 3-3                  [128, 256, 32, 32]        16,640
│    │    └─Conv2d: 3-4                  [128, 64, 32, 32]         16,448
│    └─ConvNextBlock: 2-2                [128, 64, 32, 32]         --
│    │    └─Conv2d: 3-5                  [128, 64, 32, 32]         3,200
│    │    └─LayerNorm: 3-6               [128, 64, 32, 32]         131,072
│    │    └─Conv2d: 3-7                  [128, 256, 32, 32]        16,640
│    │    └─Conv2d: 3-8                  [128, 64, 32, 32]         16,448
│    └─Downsampler: 2-3                  [128, 128, 16, 16]        --
│    │    └─LayerNorm: 3-9               [128, 64, 32, 32]         131,072
│    │    └─Conv2d: 3-10                 [128, 128, 16, 16]        32,896
│    └─ConvNextBlock: 2-4                [128, 128, 16, 16]        --
│    │    └─Conv2d: 3-11                 [128, 128, 16, 16]        6,400
│    │    └─LayerNorm: 3-12              [128, 128, 16, 16]        65,536
│    │    └─Conv2d: 3-13                 [128, 512, 16, 16]        66,048
│    │    └─Conv2d: 3-14                 [128, 128, 16, 16]        65,664
│    └─ConvNextBlock: 2-5                [128, 128, 16, 16]        --
│    │    └─Conv2d: 3-15                 [128, 128, 16, 16]        6,400
│    │    └─LayerNorm: 3-16              [128, 128, 16, 16]        65,536
│    │    └─Conv2d: 3-17                 [128, 512, 16, 16]        66,048
│    │    └─Conv2d: 3-18                 [128, 128, 16, 16]        65,664
│    └─Downsampler: 2-6                  [128, 256, 8, 8]          --
│    │    └─LayerNorm: 3-19              [128, 128, 16, 16]        65,536
│    │    └─Conv2d: 3-20                 [128, 256, 8, 8]          131,328
│    └─ConvNextBlock: 2-7                [128, 256, 8, 8]          --
│    │    └─Conv2d: 3-21                 [128, 256, 8, 8]          12,800
│    │    └─LayerNorm: 3-22              [128, 256, 8, 8]          32,768
│    │    └─Conv2d: 3-23                 [128, 1024, 8, 8]         263,168
│    │    └─Conv2d: 3-24                 [128, 256, 8, 8]          262,400
│    └─ConvNextBlock: 2-8                [128, 256, 8, 8]          --
│    │    └─Conv2d: 3-25                 [128, 256, 8, 8]          12,800
│    │    └─LayerNorm: 3-26              [128, 256, 8, 8]          32,768
│    │    └─Conv2d: 3-27                 [128, 1024, 8, 8]         263,168
│    │    └─Conv2d: 3-28                 [128, 256, 8, 8]          262,400
│    └─Downsampler: 2-9                  [128, 512, 4, 4]          --
│    │    └─LayerNorm: 3-29              [128, 256, 8, 8]          32,768
│    │    └─Conv2d: 3-30                 [128, 512, 4, 4]          524,800
│    └─ConvNextBlock: 2-10               [128, 512, 4, 4]          --
│    │    └─Conv2d: 3-31                 [128, 512, 4, 4]          25,600
│    │    └─LayerNorm: 3-32              [128, 512, 4, 4]          16,384
│    │    └─Conv2d: 3-33                 [128, 2048, 4, 4]         1,050,624
│    │    └─Conv2d: 3-34                 [128, 512, 4, 4]          1,049,088
│    └─ConvNextBlock: 2-11               [128, 512, 4, 4]          --
│    │    └─Conv2d: 3-35                 [128, 512, 4, 4]          25,600
│    │    └─LayerNorm: 3-36              [128, 512, 4, 4]          16,384
│    │    └─Conv2d: 3-37                 [128, 2048, 4, 4]         1,050,624
│    │    └─Conv2d: 3-38                 [128, 512, 4, 4]          1,049,088
├─Sequential: 1-4                        [128, 10]                 --
│    └─Flatten: 2-12                     [128, 512]                --
│    └─LayerNorm: 2-13                   [128, 512]                1,024
│    └─Linear: 2-14                      [128, 10]                 5,130
==========================================================================================
Total params: 7,223,562
Trainable params: 7,223,562
Non-trainable params: 0
Total mult-adds (G): 39.46
==========================================================================================
Input size (MB): 1.57
Forward/backward pass size (MB): 2072.52
Params size (MB): 28.89
Estimated Total Size (MB): 2102.99
…
Epoch 3: validation loss: 1.105, accuracy: 60.117
Train Epoch 4:   0%|          | 0/313 [00:00<?, ?it/s]
Validate (train) Epoch 4:   0%|          | 0/313 [00:00<?, ?it/s]
Epoch 4: training loss: 0.981, accuracy: 65.448
Validate Epoch 4:   0%|          | 0/79 [00:00<?, ?it/s]
Epoch 4: validation loss: 1.075, accuracy: 60.552
==========================================================================================
Layer (type:depth-idx)                   Output Shape              Param #
==========================================================================================
Classifier                               [128, 10]                 --
├─Conv2d: 1-1                            [128, 128, 32, 32]        512
├─LayerNorm: 1-2                         [128, 128, 32, 32]        262,144
├─Sequential: 1-3                        [128, 1024, 4, 4]         --
│    └─ConvNextBlock: 2-1                [128, 128, 32, 32]        --
│    │    └─Conv2d: 3-1                  [128, 128, 32, 32]        3,328
│    │    └─LayerNorm: 3-2               [128, 128, 32, 32]        262,144
│    │    └─Conv2d: 3-3                  [128, 512, 32, 32]        66,048
│    │    └─Conv2d: 3-4                  [128, 128, 32, 32]        65,664
│    │    └─Conv2d: 3-5                  [128, 512, 32, 32]        66,048
│    │    └─Conv2d: 3-6                  [128, 128, 32, 32]        65,664
│    └─ConvNextBlock: 2-2                [128, 128, 32, 32]        --
│    │    └─Conv2d: 3-7                  [128, 128, 32, 32]        3,328
│    │    └─LayerNorm: 3-8               [128, 128, 32, 32]        262,144
│    │    └─Conv2d: 3-9                  [128, 512, 32, 32]        66,048
│    │    └─Conv2d: 3-10                 [128, 128, 32, 32]        65,664
│    │    └─Conv2d: 3-11                 [128, 512, 32, 32]        66,048
│    │    └─Conv2d: 3-12                 [128, 128, 32, 32]        65,664
│    └─Downsampler: 2-3                  [128, 256, 16, 16]        --
│    │    └─LayerNorm: 3-13              [128, 128, 32, 32]        262,144
│    │    └─Conv2d: 3-14                 [128, 256, 16, 16]        131,328
│    └─ConvNextBlock: 2-4                [128, 256, 16, 16]        --
│    │    └─Conv2d: 3-15                 [128, 256, 16, 16]        6,656
│    │    └─LayerNorm: 3-16              [128, 256, 16, 16]        131,072
│    │    └─Conv2d: 3-17                 [128, 1024, 16, 16]       263,168
│    │    └─Conv2d: 3-18                 [128, 256, 16, 16]        262,400
│    │    └─Conv2d: 3-19                 [128, 1024, 16, 16]       263,168
│    │    └─Conv2d: 3-20                 [128, 256, 16, 16]        262,400
│    └─ConvNextBlock: 2-5                [128, 256, 16, 16]        --
│    │    └─Conv2d: 3-21                 [128, 256, 16, 16]        6,656
│    │    └─LayerNorm: 3-22              [128, 256, 16, 16]        131,072
│    │    └─Conv2d: 3-23                 [128, 1024, 16, 16]       263,168
│    │    └─Conv2d: 3-24                 [128, 256, 16, 16]        262,400
│    │    └─Conv2d: 3-25                 [128, 1024, 16, 16]       263,168
│    │    └─Conv2d: 3-26                 [128, 256, 16, 16]        262,400
│    └─Downsampler: 2-6                  [128, 512, 8, 8]          --
│    │    └─LayerNorm: 3-27              [128, 256, 16, 16]        131,072
│    │    └─Conv2d: 3-28                 [128, 512, 8, 8]          524,800
│    └─ConvNextBlock: 2-7                [128, 512, 8, 8]          --
│    │    └─Conv2d: 3-29                 [128, 512, 8, 8]          13,312
│    │    └─LayerNorm: 3-30              [128, 512, 8, 8]          65,536
│    │    └─Conv2d: 3-31                 [128, 2048, 8, 8]         1,050,624
│    │    └─Conv2d: 3-32                 [128, 512, 8, 8]          1,049,088
│    │    └─Conv2d: 3-33                 [128, 2048, 8, 8]         1,050,624
│    │    └─Conv2d: 3-34                 [128, 512, 8, 8]          1,049,088
│    └─ConvNextBlock: 2-8                [128, 512, 8, 8]          --
│    │    └─Conv2d: 3-35                 [128, 512, 8, 8]          13,312
│    │    └─LayerNorm: 3-36              [128, 512, 8, 8]          65,536
│    │    └─Conv2d: 3-37                 [128, 2048, 8, 8]         1,050,624
│    │    └─Conv2d: 3-38                 [128, 512, 8, 8]          1,049,088
│    │    └─Conv2d: 3-39                 [128, 2048, 8, 8]         1,050,624
│    │    └─Conv2d: 3-40                 [128, 512, 8, 8]          1,049,088
│    └─Downsampler: 2-9                  [128, 1024, 4, 4]         --
│    │    └─LayerNorm: 3-41              [128, 512, 8, 8]          65,536
│    │    └─Conv2d: 3-42                 [128, 1024, 4, 4]         2,098,176
│    └─ConvNextBlock: 2-10               [128, 1024, 4, 4]         --
│    │    └─Conv2d: 3-43                 [128, 1024, 4, 4]         26,624
│    │    └─LayerNorm: 3-44              [128, 1024, 4, 4]         32,768
│    │    └─Conv2d: 3-45                 [128, 4096, 4, 4]         4,198,400
│    │    └─Conv2d: 3-46                 [128, 1024, 4, 4]         4,195,328
│    │    └─Conv2d: 3-47                 [128, 4096, 4, 4]         4,198,400
│    │    └─Conv2d: 3-48                 [128, 1024, 4, 4]         4,195,328
│    └─ConvNextBlock: 2-11               [128, 1024, 4, 4]         --
│    │    └─Conv2d: 3-49                 [128, 1024, 4, 4]         26,624
│    │    └─LayerNorm: 3-50              [128, 1024, 4, 4]         32,768
│    │    └─Conv2d: 3-51                 [128, 4096, 4, 4]         4,198,400
│    │    └─Conv2d: 3-52                 [128, 1024, 4, 4]         4,195,328
│    │    └─Conv2d: 3-53                 [128, 4096, 4, 4]         4,198,400
│    │    └─Conv2d: 3-54                 [128, 1024, 4, 4]         4,195,328
├─Sequential: 1-4                        [128, 10]                 --
│    └─Flatten: 2-12                     [128, 1024]               --
│    └─LayerNorm: 2-13                   [128, 1024]               2,048
│    └─Linear: 2-14                      [128, 10]                 10,250
==========================================================================================
Total params: 49,173,770
Trainable params: 49,173,770
Non-trainable params: 0
Total mult-adds (G): 290.33
==========================================================================================
Input size (MB): 1.57
Forward/backward pass size (MB): 6661.61
Params size (MB): 196.70
Estimated Total Size (MB): 6859.88
==========================================================================================
==========================================================================================
Layer (type:depth-idx)                   Output Shape              Param #
==========================================================================================
Classifier                               [128, 10]                 --
├─Conv2d: 1-1                            [128, 128, 32, 32]        512
├─LayerNorm: 1-2                         [128, 128, 32, 32]        262,144
├─Sequential: 1-3                        [128, 1024, 4, 4]         --
│    └─ConvNextBlock: 2-1                [128, 128, 32, 32]        --
│    │    └─Conv2d: 3-1                  [128, 128, 32, 32]        3,328
│    │    └─LayerNorm: 3-2               [128, 128, 32, 32]        262,144
│    │    └─Conv2d: 3-3                  [128, 512, 32, 32]        66,048
│    │    └─Conv2d: 3-4                  [128, 128, 32, 32]        65,664
│    │    └─Conv2d: 3-5                  [128, 512, 32, 32]        66,048
│    │    └─Conv2d: 3-6                  [128, 128, 32, 32]        65,664
│    └─ConvNextBlock: 2-2                [128, 128, 32, 32]        --
│    │    └─Conv2d: 3-7                  [128, 128, 32, 32]        3,328
│    │    └─LayerNorm: 3-8               [128, 128, 32, 32]        262,144
│    │    └─Conv2d: 3-9                  [128, 512, 32, 32]        66,048
│    │    └─Conv2d: 3-10                 [128, 128, 32, 32]        65,664
│    │    └─Conv2d: 3-11                 [128, 512, 32, 32]        66,048
│    │    └─Conv2d: 3-12                 [128, 128, 32, 32]        65,664
│    └─Downsampler: 2-3                  [128, 256, 16, 16]        --
│    │    └─LayerNorm: 3-13              [128, 128, 32, 32]        262,144
│    │    └─Conv2d: 3-14                 [128, 256, 16, 16]        131,328
│    └─ConvNextBlock: 2-4                [128, 256, 16, 16]        --
│    │    └─Conv2d: 3-15                 [128, 256, 16, 16]        6,656
│    │    └─LayerNorm: 3-16              [128, 256, 16, 16]        131,072
│    │    └─Conv2d: 3-17                 [128, 1024, 16, 16]       263,168
│    │    └─Conv2d: 3-18                 [128, 256, 16, 16]        262,400
│    │    └─Conv2d: 3-19                 [128, 1024, 16, 16]       263,168
│    │    └─Conv2d: 3-20                 [128, 256, 16, 16]        262,400
│    └─ConvNextBlock: 2-5                [128, 256, 16, 16]        --
│    │    └─Conv2d: 3-21                 [128, 256, 16, 16]        6,656
│    │    └─LayerNorm: 3-22              [128, 256, 16, 16]        131,072
│    │    └─Conv2d: 3-23                 [128, 1024, 16, 16]       263,168
│    │    └─Conv2d: 3-24                 [128, 256, 16, 16]        262,400
│    │    └─Conv2d: 3-25                 [128, 1024, 16, 16]       263,168
│    │    └─Conv2d: 3-26                 [128, 256, 16, 16]        262,400
│    └─Downsampler: 2-6                  [128, 512, 8, 8]          --
│    │    └─LayerNorm: 3-27              [128, 256, 16, 16]        131,072
│    │    └─Conv2d: 3-28                 [128, 512, 8, 8]          524,800
│    └─ConvNextBlock: 2-7                [128, 512, 8, 8]          --
│    │    └─Conv2d: 3-29                 [128, 512, 8, 8]          13,312
│    │    └─LayerNorm: 3-30              [128, 512, 8, 8]          65,536
│    │    └─Conv2d: 3-31                 [128, 2048, 8, 8]         1,050,624
│    │    └─Conv2d: 3-32                 [128, 512, 8, 8]          1,049,088
│    │    └─Conv2d: 3-33                 [128, 2048, 8, 8]         1,050,624
│    │    └─Conv2d: 3-34                 [128, 512, 8, 8]          1,049,088
│    └─ConvNextBlock: 2-8                [128, 512, 8, 8]          --
│    │    └─Conv2d: 3-35                 [128, 512, 8, 8]          13,312
│    │    └─LayerNorm: 3-36              [128, 512, 8, 8]          65,536
│    │    └─Conv2d: 3-37                 [128, 2048, 8, 8]         1,050,624
│    │    └─Conv2d: 3-38                 [128, 512, 8, 8]          1,049,088
│    │    └─Conv2d: 3-39                 [128, 2048, 8, 8]         1,050,624
│    │    └─Conv2d: 3-40                 [128, 512, 8, 8]          1,049,088
│    └─Downsampler: 2-9                  [128, 1024, 4, 4]         --
│    │    └─LayerNorm: 3-41              [128, 512, 8, 8]          65,536
│    │    └─Conv2d: 3-42                 [128, 1024, 4, 4]         2,098,176
│    └─ConvNextBlock: 2-10               [128, 1024, 4, 4]         --
│    │    └─Conv2d: 3-43                 [128, 1024, 4, 4]         26,624
│    │    └─LayerNorm: 3-44              [128, 1024, 4, 4]         32,768
│    │    └─Conv2d: 3-45                 [128, 4096, 4, 4]         4,198,400
│    │    └─Conv2d: 3-46                 [128, 1024, 4, 4]         4,195,328
│    │    └─Conv2d: 3-47                 [128, 4096, 4, 4]         4,198,400
│    │    └─Conv2d: 3-48                 [128, 1024, 4, 4]         4,195,328
│    └─ConvNextBlock: 2-11               [128, 1024, 4, 4]         --
│    │    └─Conv2d: 3-49                 [128, 1024, 4, 4]         26,624
│    │    └─LayerNorm: 3-50              [128, 1024, 4, 4]         32,768
│    │    └─Conv2d: 3-51                 [128, 4096, 4, 4]         4,198,400
│    │    └─Conv2d: 3-52                 [128, 1024, 4, 4]         4,195,328
│    │    └─Conv2d: 3-53                 [128, 4096, 4, 4]         4,198,400
│    │    └─Conv2d: 3-54                 [128, 1024, 4, 4]         4,195,328
├─Sequential: 1-4                        [128, 10]                 --
│    └─Flatten: 2-12                     [128, 1024]               --
│    └─LayerNorm: 2-13                   [128, 1024]               2,048
│    └─Linear: 2-14                      [128, 10]                 10,250
==========================================================================================
Total params: 49,173,770
Trainable params: 49,173,770
Non-trainable params: 0
Total mult-adds (G): 290.33
==========================================================================================
Input size (MB): 1.57
Forward/backward pass size (MB): 6661.61
Params size (MB): 196.70
Estimated Total Size (MB): 6859.88
==========================================================================================
Train Epoch 0:   0%|          | 0/313 [00:00<?, ?it/s]
torch.Size([1, 3, 529, 951])
torch.Size([1, 3, 543, 965])
torch.Size([1, 3, 543, 965])
torch.Size([1, 3, 543, 965])
==========================================================================================
Layer (type:depth-idx)                   Output Shape              Param #
==========================================================================================
Classifier                               [128, 10]                 --
├─Conv2d: 1-1                            [128, 64, 32, 32]         256
├─LayerNorm: 1-2                         [128, 64, 32, 32]         131,072
├─Sequential: 1-3                        [128, 512, 4, 4]          --
│    └─ConvNextBlock: 2-1                [128, 64, 32, 32]         --
│    │    └─Conv2d: 3-1                  [128, 64, 32, 32]         3,200
│    │    └─LayerNorm: 3-2               [128, 64, 32, 32]         131,072
│    │    └─Conv2d: 3-3                  [128, 256, 32, 32]        16,640
│    │    └─Conv2d: 3-4                  [128, 64, 32, 32]         16,448
│    └─ConvNextBlock: 2-2                [128, 64, 32, 32]         --
│    │    └─Conv2d: 3-5                  [128, 64, 32, 32]         3,200
│    │    └─LayerNorm: 3-6               [128, 64, 32, 32]         131,072
│    │    └─Conv2d: 3-7                  [128, 256, 32, 32]        16,640
│    │    └─Conv2d: 3-8                  [128, 64, 32, 32]         16,448
│    └─Downsampler: 2-3                  [128, 128, 16, 16]        --
│    │    └─LayerNorm: 3-9               [128, 64, 32, 32]         131,072
│    │    └─Conv2d: 3-10                 [128, 128, 16, 16]        32,896
│    └─ConvNextBlock: 2-4                [128, 128, 16, 16]        --
│    │    └─Conv2d: 3-11                 [128, 128, 16, 16]        6,400
│    │    └─LayerNorm: 3-12              [128, 128, 16, 16]        65,536
│    │    └─Conv2d: 3-13                 [128, 512, 16, 16]        66,048
│    │    └─Conv2d: 3-14                 [128, 128, 16, 16]        65,664
│    └─ConvNextBlock: 2-5                [128, 128, 16, 16]        --
│    │    └─Conv2d: 3-15                 [128, 128, 16, 16]        6,400
│    │    └─LayerNorm: 3-16              [128, 128, 16, 16]        65,536
│    │    └─Conv2d: 3-17                 [128, 512, 16, 16]        66,048
│    │    └─Conv2d: 3-18                 [128, 128, 16, 16]        65,664
│    └─Downsampler: 2-6                  [128, 256, 8, 8]          --
│    │    └─LayerNorm: 3-19              [128, 128, 16, 16]        65,536
│    │    └─Conv2d: 3-20                 [128, 256, 8, 8]          131,328
│    └─ConvNextBlock: 2-7                [128, 256, 8, 8]          --
│    │    └─Conv2d: 3-21                 [128, 256, 8, 8]          12,800
│    │    └─LayerNorm: 3-22              [128, 256, 8, 8]          32,768
│    │    └─Conv2d: 3-23                 [128, 1024, 8, 8]         263,168
│    │    └─Conv2d: 3-24                 [128, 256, 8, 8]          262,400
│    └─ConvNextBlock: 2-8                [128, 256, 8, 8]          --
│    │    └─Conv2d: 3-25                 [128, 256, 8, 8]          12,800
│    │    └─LayerNorm: 3-26              [128, 256, 8, 8]          32,768
│    │    └─Conv2d: 3-27                 [128, 1024, 8, 8]         263,168
│    │    └─Conv2d: 3-28                 [128, 256, 8, 8]          262,400
│    └─Downsampler: 2-9                  [128, 512, 4, 4]          --
│    │    └─LayerNorm: 3-29              [128, 256, 8, 8]          32,768
│    │    └─Conv2d: 3-30                 [128, 512, 4, 4]          524,800
│    └─ConvNextBlock: 2-10               [128, 512, 4, 4]          --
│    │    └─Conv2d: 3-31                 [128, 512, 4, 4]          25,600
│    │    └─LayerNorm: 3-32              [128, 512, 4, 4]          16,384
│    │    └─Conv2d: 3-33                 [128, 2048, 4, 4]         1,050,624
│    │    └─Conv2d: 3-34                 [128, 512, 4, 4]          1,049,088
│    └─ConvNextBlock: 2-11               [128, 512, 4, 4]          --
│    │    └─Conv2d: 3-35                 [128, 512, 4, 4]          25,600
│    │    └─LayerNorm: 3-36              [128, 512, 4, 4]          16,384
│    │    └─Conv2d: 3-37                 [128, 2048, 4, 4]         1,050,624
│    │    └─Conv2d: 3-38                 [128, 512, 4, 4]          1,049,088
├─Sequential: 1-4                        [128, 10]                 --
│    └─Flatten: 2-12                     [128, 512]                --
│    └─LayerNorm: 2-13                   [128, 512]                1,024
│    └─Linear: 2-14                      [128, 10]                 5,130
==========================================================================================
Total params: 7,223,562
Trainable params: 7,223,562
Non-trainable params: 0
Total mult-adds (G): 39.46
==========================================================================================
Input size (MB): 1.57
Forward/backward pass size (MB): 2072.52
Params size (MB): 28.89
Estimated Total Size (MB): 2102.99
==========================================================================================
==========================================================================================
Layer (type:depth-idx)                   Output Shape              Param #
==========================================================================================
Classifier                               [128, 10]                 --
├─Conv2d: 1-1                            [128, 64, 32, 32]         256
├─LayerNorm: 1-2                         [128, 64, 32, 32]         131,072
├─Sequential: 1-3                        [128, 512, 4, 4]          --
│    └─ConvNextBlock: 2-1                [128, 64, 32, 32]         --
│    │    └─Conv2d: 3-1                  [128, 64, 32, 32]         3,200
│    │    └─LayerNorm: 3-2               [128, 64, 32, 32]         131,072
│    │    └─Conv2d: 3-3                  [128, 256, 32, 32]        16,640
│    │    └─Conv2d: 3-4                  [128, 64, 32, 32]         16,448
│    └─ConvNextBlock: 2-2                [128, 64, 32, 32]         --
│    │    └─Conv2d: 3-5                  [128, 64, 32, 32]         3,200
│    │    └─LayerNorm: 3-6               [128, 64, 32, 32]         131,072
│    │    └─Conv2d: 3-7                  [128, 256, 32, 32]        16,640
│    │    └─Conv2d: 3-8                  [128, 64, 32, 32]         16,448
│    └─Downsampler: 2-3                  [128, 128, 16, 16]        --
│    │    └─LayerNorm: 3-9               [128, 64, 32, 32]         131,072
│    │    └─Conv2d: 3-10                 [128, 128, 16, 16]        32,896
│    └─ConvNextBlock: 2-4                [128, 128, 16, 16]        --
│    │    └─Conv2d: 3-11                 [128, 128, 16, 16]        6,400
│    │    └─LayerNorm: 3-12              [128, 128, 16, 16]        65,536
│    │    └─Conv2d: 3-13                 [128, 512, 16, 16]        66,048
│    │    └─Conv2d: 3-14                 [128, 128, 16, 16]        65,664
│    └─ConvNextBlock: 2-5                [128, 128, 16, 16]        --
│    │    └─Conv2d: 3-15                 [128, 128, 16, 16]        6,400
│    │    └─LayerNorm: 3-16              [128, 128, 16, 16]        65,536
│    │    └─Conv2d: 3-17                 [128, 512, 16, 16]        66,048
│    │    └─Conv2d: 3-18                 [128, 128, 16, 16]        65,664
│    └─Downsampler: 2-6                  [128, 256, 8, 8]          --
│    │    └─LayerNorm: 3-19              [128, 128, 16, 16]        65,536
│    │    └─Conv2d: 3-20                 [128, 256, 8, 8]          131,328
│    └─ConvNextBlock: 2-7                [128, 256, 8, 8]          --
│    │    └─Conv2d: 3-21                 [128, 256, 8, 8]          12,800
│    │    └─LayerNorm: 3-22              [128, 256, 8, 8]          32,768
│    │    └─Conv2d: 3-23                 [128, 1024, 8, 8]         263,168
│    │    └─Conv2d: 3-24                 [128, 256, 8, 8]          262,400
│    └─ConvNextBlock: 2-8                [128, 256, 8, 8]          --
│    │    └─Conv2d: 3-25                 [128, 256, 8, 8]          12,800
│    │    └─LayerNorm: 3-26              [128, 256, 8, 8]          32,768
│    │    └─Conv2d: 3-27                 [128, 1024, 8, 8]         263,168
│    │    └─Conv2d: 3-28                 [128, 256, 8, 8]          262,400
│    └─Downsampler: 2-9                  [128, 512, 4, 4]          --
│    │    └─LayerNorm: 3-29              [128, 256, 8, 8]          32,768
│    │    └─Conv2d: 3-30                 [128, 512, 4, 4]          524,800
│    └─ConvNextBlock: 2-10               [128, 512, 4, 4]          --
│    │    └─Conv2d: 3-31                 [128, 512, 4, 4]          25,600
│    │    └─LayerNorm: 3-32              [128, 512, 4, 4]          16,384
│    │    └─Conv2d: 3-33                 [128, 2048, 4, 4]         1,050,624
│    │    └─Conv2d: 3-34                 [128, 512, 4, 4]          1,049,088
│    └─ConvNextBlock: 2-11               [128, 512, 4, 4]          --
│    │    └─Conv2d: 3-35                 [128, 512, 4, 4]          25,600
│    │    └─LayerNorm: 3-36              [128, 512, 4, 4]          16,384
│    │    └─Conv2d: 3-37                 [128, 2048, 4, 4]         1,050,624
│    │    └─Conv2d: 3-38                 [128, 512, 4, 4]          1,049,088
├─Sequential: 1-4                        [128, 10]                 --
│    └─Flatten: 2-12                     [128, 512]                --
│    └─LayerNorm: 2-13                   [128, 512]                1,024
│    └─Linear: 2-14                      [128, 10]                 5,130
==========================================================================================
Total params: 7,223,562
Trainable params: 7,223,562
Non-trainable params: 0
Total mult-adds (G): 39.46
==========================================================================================
Input size (MB): 1.57
Forward/backward pass size (MB): 2072.52
Params size (MB): 28.89
Estimated Total Size (MB): 2102.99
==========================================================================================
==========================================================================================
Layer (type:depth-idx)                   Output Shape              Param #
==========================================================================================
Classifier                               [128, 10]                 --
├─Conv2d: 1-1                            [128, 128, 32, 32]        512
├─LayerNorm: 1-2                         [128, 128, 32, 32]        262,144
├─Sequential: 1-3                        [128, 1024, 4, 4]         --
│    └─ConvNextBlock: 2-1                [128, 128, 32, 32]        --
│    │    └─Conv2d: 3-1                  [128, 128, 32, 32]        3,328
│    │    └─LayerNorm: 3-2               [128, 128, 32, 32]        262,144
│    │    └─Conv2d: 3-3                  [128, 512, 32, 32]        66,048
│    │    └─Conv2d: 3-4                  [128, 128, 32, 32]        65,664
│    │    └─Conv2d: 3-5                  [128, 512, 32, 32]        66,048
│    │    └─Conv2d: 3-6                  [128, 128, 32, 32]        65,664
│    └─ConvNextBlock: 2-2                [128, 128, 32, 32]        --
│    │    └─Conv2d: 3-7                  [128, 128, 32, 32]        3,328
│    │    └─LayerNorm: 3-8               [128, 128, 32, 32]        262,144
│    │    └─Conv2d: 3-9                  [128, 512, 32, 32]        66,048
│    │    └─Conv2d: 3-10                 [128, 128, 32, 32]        65,664
│    │    └─Conv2d: 3-11                 [128, 512, 32, 32]        66,048
│    │    └─Conv2d: 3-12                 [128, 128, 32, 32]        65,664
│    └─Downsampler: 2-3                  [128, 256, 16, 16]        --
│    │    └─LayerNorm: 3-13              [128, 128, 32, 32]        262,144
│    │    └─Conv2d: 3-14                 [128, 256, 16, 16]        131,328
│    └─ConvNextBlock: 2-4                [128, 256, 16, 16]        --
│    │    └─Conv2d: 3-15                 [128, 256, 16, 16]        6,656
│    │    └─LayerNorm: 3-16              [128, 256, 16, 16]        131,072
│    │    └─Conv2d: 3-17                 [128, 1024, 16, 16]       263,168
│    │    └─Conv2d: 3-18                 [128, 256, 16, 16]        262,400
│    │    └─Conv2d: 3-19                 [128, 1024, 16, 16]       263,168
│    │    └─Conv2d: 3-20                 [128, 256, 16, 16]        262,400
│    └─ConvNextBlock: 2-5                [128, 256, 16, 16]        --
│    │    └─Conv2d: 3-21                 [128, 256, 16, 16]        6,656
│    │    └─LayerNorm: 3-22              [128, 256, 16, 16]        131,072
│    │    └─Conv2d: 3-23                 [128, 1024, 16, 16]       263,168
│    │    └─Conv2d: 3-24                 [128, 256, 16, 16]        262,400
│    │    └─Conv2d: 3-25                 [128, 1024, 16, 16]       263,168
│    │    └─Conv2d: 3-26                 [128, 256, 16, 16]        262,400
│    └─Downsampler: 2-6                  [128, 512, 8, 8]          --
│    │    └─LayerNorm: 3-27              [128, 256, 16, 16]        131,072
│    │    └─Conv2d: 3-28                 [128, 512, 8, 8]          524,800
│    └─ConvNextBlock: 2-7                [128, 512, 8, 8]          --
│    │    └─Conv2d: 3-29                 [128, 512, 8, 8]          13,312
│    │    └─LayerNorm: 3-30              [128, 512, 8, 8]          65,536
│    │    └─Conv2d: 3-31                 [128, 2048, 8, 8]         1,050,624
│    │    └─Conv2d: 3-32                 [128, 512, 8, 8]          1,049,088
│    │    └─Conv2d: 3-33                 [128, 2048, 8, 8]         1,050,624
│    │    └─Conv2d: 3-34                 [128, 512, 8, 8]          1,049,088
│    └─ConvNextBlock: 2-8                [128, 512, 8, 8]          --
│    │    └─Conv2d: 3-35                 [128, 512, 8, 8]          13,312
│    │    └─LayerNorm: 3-36              [128, 512, 8, 8]          65,536
│    │    └─Conv2d: 3-37                 [128, 2048, 8, 8]         1,050,624
│    │    └─Conv2d: 3-38                 [128, 512, 8, 8]          1,049,088
│    │    └─Conv2d: 3-39                 [128, 2048, 8, 8]         1,050,624
│    │    └─Conv2d: 3-40                 [128, 512, 8, 8]          1,049,088
│    └─Downsampler: 2-9                  [128, 1024, 4, 4]         --
│    │    └─LayerNorm: 3-41              [128, 512, 8, 8]          65,536
│    │    └─Conv2d: 3-42                 [128, 1024, 4, 4]         2,098,176
│    └─ConvNextBlock: 2-10               [128, 1024, 4, 4]         --
│    │    └─Conv2d: 3-43                 [128, 1024, 4, 4]         26,624
│    │    └─LayerNorm: 3-44              [128, 1024, 4, 4]         32,768
│    │    └─Conv2d: 3-45                 [128, 4096, 4, 4]         4,198,400
│    │    └─Conv2d: 3-46                 [128, 1024, 4, 4]         4,195,328
│    │    └─Conv2d: 3-47                 [128, 4096, 4, 4]         4,198,400
│    │    └─Conv2d: 3-48                 [128, 1024, 4, 4]         4,195,328
│    └─ConvNextBlock: 2-11               [128, 1024, 4, 4]         --
│    │    └─Conv2d: 3-49                 [128, 1024, 4, 4]         26,624
│    │    └─LayerNorm: 3-50              [128, 1024, 4, 4]         32,768
│    │    └─Conv2d: 3-51                 [128, 4096, 4, 4]         4,198,400
│    │    └─Conv2d: 3-52                 [128, 1024, 4, 4]         4,195,328
│    │    └─Conv2d: 3-53                 [128, 4096, 4, 4]         4,198,400
│    │    └─Conv2d: 3-54                 [128, 1024, 4, 4]         4,195,328
├─Sequential: 1-4                        [128, 10]                 --
│    └─Flatten: 2-12                     [128, 1024]               --
│    └─LayerNorm: 2-13                   [128, 1024]               2,048
│    └─Linear: 2-14                      [128, 10]                 10,250
==========================================================================================
Total params: 49,173,770
Trainable params: 49,173,770
Non-trainable params: 0
Total mult-adds (G): 290.33
==========================================================================================
Input size (MB): 1.57
Forward/backward pass size (MB): 6661.61
Params size (MB): 196.70
Estimated Total Size (MB): 6859.88
==========================================================================================
==========================================================================================
Layer (type:depth-idx)                   Output Shape              Param #
==========================================================================================
Classifier                               [128, 10]                 --
├─Conv2d: 1-1                            [128, 128, 32, 32]        512
├─LayerNorm: 1-2                         [128, 128, 32, 32]        262,144
├─Sequential: 1-3                        [128, 1024, 4, 4]         --
│    └─ConvNextBlock: 2-1                [128, 128, 32, 32]        --
│    │    └─Conv2d: 3-1                  [128, 128, 32, 32]        3,328
│    │    └─LayerNorm: 3-2               [128, 128, 32, 32]        262,144
│    │    └─Conv2d: 3-3                  [128, 512, 32, 32]        66,048
│    │    └─Conv2d: 3-4                  [128, 128, 32, 32]        65,664
│    │    └─Conv2d: 3-5                  [128, 512, 32, 32]        66,048
│    │    └─Conv2d: 3-6                  [128, 128, 32, 32]        65,664
│    └─ConvNextBlock: 2-2                [128, 128, 32, 32]        --
│    │    └─Conv2d: 3-7                  [128, 128, 32, 32]        3,328
│    │    └─LayerNorm: 3-8               [128, 128, 32, 32]        262,144
│    │    └─Conv2d: 3-9                  [128, 512, 32, 32]        66,048
│    │    └─Conv2d: 3-10                 [128, 128, 32, 32]        65,664
│    │    └─Conv2d: 3-11                 [128, 512, 32, 32]        66,048
│    │    └─Conv2d: 3-12                 [128, 128, 32, 32]        65,664
│    └─Downsampler: 2-3                  [128, 256, 16, 16]        --
│    │    └─LayerNorm: 3-13              [128, 128, 32, 32]        262,144
│    │    └─Conv2d: 3-14                 [128, 256, 16, 16]        131,328
│    └─ConvNextBlock: 2-4                [128, 256, 16, 16]        --
│    │    └─Conv2d: 3-15                 [128, 256, 16, 16]        6,656
│    │    └─LayerNorm: 3-16              [128, 256, 16, 16]        131,072
│    │    └─Conv2d: 3-17                 [128, 1024, 16, 16]       263,168
│    │    └─Conv2d: 3-18                 [128, 256, 16, 16]        262,400
│    │    └─Conv2d: 3-19                 [128, 1024, 16, 16]       263,168
│    │    └─Conv2d: 3-20                 [128, 256, 16, 16]        262,400
│    └─ConvNextBlock: 2-5                [128, 256, 16, 16]        --
│    │    └─Conv2d: 3-21                 [128, 256, 16, 16]        6,656
│    │    └─LayerNorm: 3-22              [128, 256, 16, 16]        131,072
│    │    └─Conv2d: 3-23                 [128, 1024, 16, 16]       263,168
│    │    └─Conv2d: 3-24                 [128, 256, 16, 16]        262,400
│    │    └─Conv2d: 3-25                 [128, 1024, 16, 16]       263,168
│    │    └─Conv2d: 3-26                 [128, 256, 16, 16]        262,400
│    └─Downsampler: 2-6                  [128, 512, 8, 8]          --
│    │    └─LayerNorm: 3-27              [128, 256, 16, 16]        131,072
│    │    └─Conv2d: 3-28                 [128, 512, 8, 8]          524,800
│    └─ConvNextBlock: 2-7                [128, 512, 8, 8]          --
│    │    └─Conv2d: 3-29                 [128, 512, 8, 8]          13,312
│    │    └─LayerNorm: 3-30              [128, 512, 8, 8]          65,536
│    │    └─Conv2d: 3-31                 [128, 2048, 8, 8]         1,050,624
│    │    └─Conv2d: 3-32                 [128, 512, 8, 8]          1,049,088
│    │    └─Conv2d: 3-33                 [128, 2048, 8, 8]         1,050,624
│    │    └─Conv2d: 3-34                 [128, 512, 8, 8]          1,049,088
│    └─ConvNextBlock: 2-8                [128, 512, 8, 8]          --
│    │    └─Conv2d: 3-35                 [128, 512, 8, 8]          13,312
│    │    └─LayerNorm: 3-36              [128, 512, 8, 8]          65,536
│    │    └─Conv2d: 3-37                 [128, 2048, 8, 8]         1,050,624
│    │    └─Conv2d: 3-38                 [128, 512, 8, 8]          1,049,088
│    │    └─Conv2d: 3-39                 [128, 2048, 8, 8]         1,050,624
│    │    └─Conv2d: 3-40                 [128, 512, 8, 8]          1,049,088
│    └─Downsampler: 2-9                  [128, 1024, 4, 4]         --
│    │    └─LayerNorm: 3-41              [128, 512, 8, 8]          65,536
│    │    └─Conv2d: 3-42                 [128, 1024, 4, 4]         2,098,176
│    └─ConvNextBlock: 2-10               [128, 1024, 4, 4]         --
│    │    └─Conv2d: 3-43                 [128, 1024, 4, 4]         26,624
│    │    └─LayerNorm: 3-44              [128, 1024, 4, 4]         32,768
│    │    └─Conv2d: 3-45                 [128, 4096, 4, 4]         4,198,400
│    │    └─Conv2d: 3-46                 [128, 1024, 4, 4]         4,195,328
│    │    └─Conv2d: 3-47                 [128, 4096, 4, 4]         4,198,400
│    │    └─Conv2d: 3-48                 [128, 1024, 4, 4]         4,195,328
│    └─ConvNextBlock: 2-11               [128, 1024, 4, 4]         --
│    │    └─Conv2d: 3-49                 [128, 1024, 4, 4]         26,624
│    │    └─LayerNorm: 3-50              [128, 1024, 4, 4]         32,768
│    │    └─Conv2d: 3-51                 [128, 4096, 4, 4]         4,198,400
│    │    └─Conv2d: 3-52                 [128, 1024, 4, 4]         4,195,328
│    │    └─Conv2d: 3-53                 [128, 4096, 4, 4]         4,198,400
│    │    └─Conv2d: 3-54                 [128, 1024, 4, 4]         4,195,328
├─Sequential: 1-4                        [128, 10]                 --
│    └─Flatten: 2-12                     [128, 1024]               --
│    └─LayerNorm: 2-13                   [128, 1024]               2,048
│    └─Linear: 2-14                      [128, 10]                 10,250
==========================================================================================
Total params: 49,173,770
Trainable params: 49,173,770
Non-trainable params: 0
Total mult-adds (G): 290.33
==========================================================================================
Input size (MB): 1.57
Forward/backward pass size (MB): 6661.61
Params size (MB): 196.70
Estimated Total Size (MB): 6859.88
…
